…
            "\u001b[32m2022-03-09 16:52:30\u001b[0m | \u001b[1mINFO    \u001b[0m | \u001b[36myolox.core.trainer\u001b[0m:\u001b[36m152\u001b[0m - \u001b[1minit prefetcher, this might take one minute or less...\u001b[0m\n",
            "\u001b[32m2022-03-09 16:52:40\u001b[0m | \u001b[1mINFO    \u001b[0m | \u001b[36myolox.core.trainer\u001b[0m:\u001b[36m182\u001b[0m - \u001b[1mTraining start...\u001b[0m\n",
            "\u001b[32m2022-03-09 16:52:40\u001b[0m | \u001b[1mINFO    \u001b[0m | \u001b[36myolox.core.trainer\u001b[0m:\u001b[36m183\u001b[0m - \u001b[1m\n",
            "YOLOX(\n",
            "  (backbone): YOLOPAFPN(\n",
            "    (backbone): CSPDarknet(\n",
            "      (stem): Focus(\n",
            "        (conv): BaseConv(\n",
            "          (conv): Conv2d(12, 32, kernel_size=(3, 3), stride=(1, 1), padding=(1, 1), bias=False)\n",
            "          (bn): BatchNorm2d(32, eps=0.001, momentum=0.03, affine=True, track_running_stats=True)\n",
            "          (act): SiLU(inplace=True)\n",
            "        )\n",
            "      )\n",
            "      (dark2): Sequential(\n",
            "        (0): BaseConv(\n",
            "          (conv): Conv2d(32, 64, kernel_size=(3, 3), stride=(2, 2), padding=(1, 1), bias=False)\n",
            "          (bn): BatchNorm2d(64, eps=0.001, momentum=0.03, affine=True, track_running_stats=True)\n",
            "          (act): SiLU(inplace=True)\n",
            "        )\n",
            "        (1): CSPLayer(\n",
            "          (conv1): BaseConv(\n",
            "            (conv): Conv2d(64, 32, kernel_size=(1, 1), stride=(1, 1), bias=False)\n",
            "            (bn): BatchNorm2d(32, eps=0.001, momentum=0.03, affine=True, track_running_stats=True)\n",
            "            (act): SiLU(inplace=True)\n",
            "          )\n",
            "          (conv2): BaseConv(\n",
            "            (conv): Conv2d(64, 32, kernel_size=(1, 1), stride=(1, 1), bias=False)\n",
            "            (bn): BatchNorm2d(32, eps=0.001, momentum=0.03, affine=True, track_running_stats=True)\n",
            "            (act): SiLU(inplace=True)\n",
            "          )\n",
            "          (conv3): BaseConv(\n",
            "            (conv): Conv2d(64, 64, kernel_size=(1, 1), stride=(1, 1), bias=False)\n",
            "            (bn): BatchNorm2d(64, eps=0.001, momentum=0.03, affine=True, track_running_stats=True)\n",
            "            (act): SiLU(inplace=True)\n",
            "          )\n",
            "          (m): Sequential(\n",
            "            (0): Bottleneck(\n",
            "              (conv1): BaseConv(\n",
            "                (conv): Conv2d(32, 32, kernel_size=(1, 1), stride=(1, 1), bias=False)\n",
            "                (bn): BatchNorm2d(32, eps=0.001, momentum=0.03, affine=True, track_running_stats=True)\n",
            "                (act): SiLU(inplace=True)\n",
            "              )\n",
            "              (conv2): BaseConv(\n",
            "                (conv): Conv2d(32, 32, kernel_size=(3, 3), stride=(1, 1), padding=(1, 1), bias=False)\n",
            "                (bn): BatchNorm2d(32, eps=0.001, momentum=0.03, affine=True, track_running_stats=True)\n",
            "                (act): SiLU(inplace=True)\n",
            "              )\n",
            "            )\n",
            "          )\n",
            "        )\n",
            "      )\n",
            "      (dark3): Sequential(\n",
            "        (0): BaseConv(\n",
            "          (conv): Conv2d(64, 128, kernel_size=(3, 3), stride=(2, 2), padding=(1, 1), bias=False)\n",
            "          (bn): BatchNorm2d(128, eps=0.001, momentum=0.03, affine=True, track_running_stats=True)\n",
            "          (act): SiLU(inplace=True)\n",
            "        )\n",
            "        (1): CSPLayer(\n",
            "          (conv1): BaseConv(\n",
            "            (conv): Conv2d(128, 64, kernel_size=(1, 1), stride=(1, 1), bias=False)\n",
            "            (bn): BatchNorm2d(64, eps=0.001, momentum=0.03, affine=True, track_running_stats=True)\n",
            "            (act): SiLU(inplace=True)\n",
            "          )\n",
            "          (conv2): BaseConv(\n",
            "            (conv): Conv2d(128, 64, kernel_size=(1, 1), stride=(1, 1), bias=False)\n",
            "            (bn): BatchNorm2d(64, eps=0.001, momentum=0.03, affine=True, track_running_stats=True)\n",
            "            (act): SiLU(inplace=True)\n",
            "          )\n",
            "          (conv3): BaseConv(\n",
            "            (conv): Conv2d(128, 128, kernel_size=(1, 1), stride=(1, 1), bias=False)\n",
            "            (bn): BatchNorm2d(128, eps=0.001, momentum=0.03, affine=True, track_running_stats=True)\n",
            "            (act): SiLU(inplace=True)\n",
            "          )\n",
            "          (m): Sequential(\n",
            "            (0): Bottleneck(\n",
            "              (conv1): BaseConv(\n",
            "                (conv): Conv2d(64, 64, kernel_size=(1, 1), stride=(1, 1), bias=False)\n",
            "                (bn): BatchNorm2d(64, eps=0.001, momentum=0.03, affine=True, track_running_stats=True)\n",
            "                (act): SiLU(inplace=True)\n",
            "              )\n",
            "              (conv2): BaseConv(\n",
            "                (conv): Conv2d(64, 64, kernel_size=(3, 3), stride=(1, 1), padding=(1, 1), bias=False)\n",
            "                (bn): BatchNorm2d(64, eps=0.001, momentum=0.03, affine=True, track_running_stats=True)\n",
            "                (act): SiLU(inplace=True)\n",
            "              )\n",
            "            )\n",
            "            (1): Bottleneck(\n",
            "              (conv1): BaseConv(\n",
            "                (conv): Conv2d(64, 64, kernel_size=(1, 1), stride=(1, 1), bias=False)\n",
            "                (bn): BatchNorm2d(64, eps=0.001, momentum=0.03, affine=True, track_running_stats=True)\n",
            "                (act): SiLU(inplace=True)\n",
            "              )\n",
            "              (conv2): BaseConv(\n",
            "                (conv): Conv2d(64, 64, kernel_size=(3, 3), stride=(1, 1), padding=(1, 1), bias=False)\n",
            "                (bn): BatchNorm2d(64, eps=0.001, momentum=0.03, affine=True, track_running_stats=True)\n",
            "                (act): SiLU(inplace=True)\n",
            "              )\n",
            "            )\n",
            "            (2): Bottleneck(\n",
            "              (conv1): BaseConv(\n",
            "                (conv): Conv2d(64, 64, kernel_size=(1, 1), stride=(1, 1), bias=False)\n",
            "                (bn): BatchNorm2d(64, eps=0.001, momentum=0.03, affine=True, track_running_stats=True)\n",
            "                (act): SiLU(inplace=True)\n",
            "              )\n",
            "              (conv2): BaseConv(\n",
            "                (conv): Conv2d(64, 64, kernel_size=(3, 3), stride=(1, 1), padding=(1, 1), bias=False)\n",
            "                (bn): BatchNorm2d(64, eps=0.001, momentum=0.03, affine=True, track_running_stats=True)\n",
            "                (act): SiLU(inplace=True)\n",
            "              )\n",
            "            )\n",
            "          )\n",
            "        )\n",
            "      )\n",
            "      (dark4): Sequential(\n",
            "        (0): BaseConv(\n",
            "          (conv): Conv2d(128, 256, kernel_size=(3, 3), stride=(2, 2), padding=(1, 1), bias=False)\n",
            "          (bn): BatchNorm2d(256, eps=0.001, momentum=0.03, affine=True, track_running_stats=True)\n",
            "          (act): SiLU(inplace=True)\n",
            "        )\n",
            "        (1): CSPLayer(\n",
            "          (conv1): BaseConv(\n",
            "            (conv): Conv2d(256, 128, kernel_size=(1, 1), stride=(1, 1), bias=False)\n",
            "            (bn): BatchNorm2d(128, eps=0.001, momentum=0.03, affine=True, track_running_stats=True)\n",
            "            (act): SiLU(inplace=True)\n",
            "          )\n",
            "          (conv2): BaseConv(\n",
            "            (conv): Conv2d(256, 128, kernel_size=(1, 1), stride=(1, 1), bias=False)\n",
            "            (bn): BatchNorm2d(128, eps=0.001, momentum=0.03, affine=True, track_running_stats=True)\n",
            "            (act): SiLU(inplace=True)\n",
            "          )\n",
            "          (conv3): BaseConv(\n",
            "            (conv): Conv2d(256, 256, kernel_size=(1, 1), stride=(1, 1), bias=False)\n",
            "            (bn): BatchNorm2d(256, eps=0.001, momentum=0.03, affine=True, track_running_stats=True)\n",
            "            (act): SiLU(inplace=True)\n",
            "          )\n",
            "          (m): Sequential(\n",
            "            (0): Bottleneck(\n",
            "              (conv1): BaseConv(\n",
            "                (conv): Conv2d(128, 128, kernel_size=(1, 1), stride=(1, 1), bias=False)\n",
            "                (bn): BatchNorm2d(128, eps=0.001, momentum=0.03, affine=True, track_running_stats=True)\n",
            "                (act): SiLU(inplace=True)\n",
            "              )\n",
            "              (conv2): BaseConv(\n",
            "                (conv): Conv2d(128, 128, kernel_size=(3, 3), stride=(1, 1), padding=(1, 1), bias=False)\n",
            "                (bn): BatchNorm2d(128, eps=0.001, momentum=0.03, affine=True, track_running_stats=True)\n",
            "                (act): SiLU(inplace=True)\n",
            "              )\n",
            "            )\n",
            "            (1): Bottleneck(\n",
            "              (conv1): BaseConv(\n",
            "                (conv): Conv2d(128, 128, kernel_size=(1, 1), stride=(1, 1), bias=False)\n",
            "                (bn): BatchNorm2d(128, eps=0.001, momentum=0.03, affine=True, track_running_stats=True)\n",
            "                (act): SiLU(inplace=True)\n",
            "              )\n",
            "              (conv2): BaseConv(\n",
            "                (conv): Conv2d(128, 128, kernel_size=(3, 3), stride=(1, 1), padding=(1, 1), bias=False)\n",
            "                (bn): BatchNorm2d(128, eps=0.001, momentum=0.03, affine=True, track_running_stats=True)\n",
            "                (act): SiLU(inplace=True)\n",
            "              )\n",
            "            )\n",
            "            (2): Bottleneck(\n",
            "              (conv1): BaseConv(\n",
            "                (conv): Conv2d(128, 128, kernel_size=(1, 1), stride=(1, 1), bias=False)\n",
            "                (bn): BatchNorm2d(128, eps=0.001, momentum=0.03, affine=True, track_running_stats=True)\n",
            "                (act): SiLU(inplace=True)\n",
            "              )\n",
            "              (conv2): BaseConv(\n",
            "                (conv): Conv2d(128, 128, kernel_size=(3, 3), stride=(1, 1), padding=(1, 1), bias=False)\n",
            "                (bn): BatchNorm2d(128, eps=0.001, momentum=0.03, affine=True, track_running_stats=True)\n",
            "                (act): SiLU(inplace=True)\n",
            "              )\n",
            "            )\n",
            "          )\n",
            "        )\n",
            "      )\n",
            "      (dark5): Sequential(\n",
            "        (0): BaseConv(\n",
            "          (conv): Conv2d(256, 512, kernel_size=(3, 3), stride=(2, 2), padding=(1, 1), bias=False)\n",
            "          (bn): BatchNorm2d(512, eps=0.001, momentum=0.03, affine=True, track_running_stats=True)\n",
            "          (act): SiLU(inplace=True)\n",
            "        )\n",
            "        (1): SPPBottleneck(\n",
            "          (conv1): BaseConv(\n",
            "            (conv): Conv2d(512, 256, kernel_size=(1, 1), stride=(1, 1), bias=False)\n",
            "            (bn): BatchNorm2d(256, eps=0.001, momentum=0.03, affine=True, track_running_stats=True)\n",
            "            (act): SiLU(inplace=True)\n",
            "          )\n",
            "          (m): ModuleList(\n",
            "            (0): MaxPool2d(kernel_size=5, stride=1, padding=2, dilation=1, ceil_mode=False)\n",
            "            (1): MaxPool2d(kernel_size=9, stride=1, padding=4, dilation=1, ceil_mode=False)\n",
            "            (2): MaxPool2d(kernel_size=13, stride=1, padding=6, dilation=1, ceil_mode=False)\n",
            "          )\n",
            "          (conv2): BaseConv(\n",
            "            (conv): Conv2d(1024, 512, kernel_size=(1, 1), stride=(1, 1), bias=False)\n",
            "            (bn): BatchNorm2d(512, eps=0.001, momentum=0.03, affine=True, track_running_stats=True)\n",
            "            (act): SiLU(inplace=True)\n",
            "          )\n",
            "        )\n",
            "        (2): CSPLayer(\n",
            "          (conv1): BaseConv(\n",
            "            (conv): Conv2d(512, 256, kernel_size=(1, 1), stride=(1, 1), bias=False)\n",
            "            (bn): BatchNorm2d(256, eps=0.001, momentum=0.03, affine=True, track_running_stats=True)\n",
            "            (act): SiLU(inplace=True)\n",
            "          )\n",
            "          (conv2): BaseConv(\n",
            "            (conv): Conv2d(512, 256, kernel_size=(1, 1), stride=(1, 1), bias=False)\n",
            "            (bn): BatchNorm2d(256, eps=0.001, momentum=0.03, affine=True, track_running_stats=True)\n",
            "            (act): SiLU(inplace=True)\n",
            "          )\n",
            "          (conv3): BaseConv(\n",
            "            (conv): Conv2d(512, 512, kernel_size=(1, 1), stride=(1, 1), bias=False)\n",
            "            (bn): BatchNorm2d(512, eps=0.001, momentum=0.03, affine=True, track_running_stats=True)\n",
            "            (act): SiLU(inplace=True)\n",
            "          )\n",
            "          (m): Sequential(\n",
            "            (0): Bottleneck(\n",
            "              (conv1): BaseConv(\n",
            "                (conv): Conv2d(256, 256, kernel_size=(1, 1), stride=(1, 1), bias=False)\n",
            "                (bn): BatchNorm2d(256, eps=0.001, momentum=0.03, affine=True, track_running_stats=True)\n",
            "                (act): SiLU(inplace=True)\n",
            "              )\n",
            "              (conv2): BaseConv(\n",
            "                (conv): Conv2d(256, 256, kernel_size=(3, 3), stride=(1, 1), padding=(1, 1), bias=False)\n",
            "                (bn): BatchNorm2d(256, eps=0.001, momentum=0.03, affine=True, track_running_stats=True)\n",
            "                (act): SiLU(inplace=True)\n",
            "              )\n",
            "            )\n",
            "          )\n",
            "        )\n",
            "      )\n",
            "    )\n",
            "    (upsample): Upsample(scale_factor=2.0, mode=nearest)\n",
            "    (lateral_conv0): BaseConv(\n",
            "      (conv): Conv2d(512, 256, kernel_size=(1, 1), stride=(1, 1), bias=False)\n",
            "      (bn): BatchNorm2d(256, eps=0.001, momentum=0.03, affine=True, track_running_stats=True)\n",
            "      (act): SiLU(inplace=True)\n",
            "    )\n",
            "    (C3_p4): CSPLayer(\n",
            "      (conv1): BaseConv(\n",
            "        (conv): Conv2d(512, 128, kernel_size=(1, 1), stride=(1, 1), bias=False)\n",
            "        (bn): BatchNorm2d(128, eps=0.001, momentum=0.03, affine=True, track_running_stats=True)\n",
            "        (act): SiLU(inplace=True)\n",
            "      )\n",
            "      (conv2): BaseConv(\n",
            "        (conv): Conv2d(512, 128, kernel_size=(1, 1), stride=(1, 1), bias=False)\n",
            "        (bn): BatchNorm2d(128, eps=0.001, momentum=0.03, affine=True, track_running_stats=True)\n",
            "        (act): SiLU(inplace=True)\n",
            "      )\n",
            "      (conv3): BaseConv(\n",
            "        (conv): Conv2d(256, 256, kernel_size=(1, 1), stride=(1, 1), bias=False)\n",
            "        (bn): BatchNorm2d(256, eps=0.001, momentum=0.03, affine=True, track_running_stats=True)\n",
            "        (act): SiLU(inplace=True)\n",
            "      )\n",
            "      (m): Sequential(\n",
            "        (0): Bottleneck(\n",
            "          (conv1): BaseConv(\n",
            "            (conv): Conv2d(128, 128, kernel_size=(1, 1), stride=(1, 1), bias=False)\n",
            "            (bn): BatchNorm2d(128, eps=0.001, momentum=0.03, affine=True, track_running_stats=True)\n",
            "            (act): SiLU(inplace=True)\n",
            "          )\n",
            "          (conv2): BaseConv(\n",
            "            (conv): Conv2d(128, 128, kernel_size=(3, 3), stride=(1, 1), padding=(1, 1), bias=False)\n",
            "            (bn): BatchNorm2d(128, eps=0.001, momentum=0.03, affine=True, track_running_stats=True)\n",
            "            (act): SiLU(inplace=True)\n",
            "          )\n",
            "        )\n",
            "      )\n",
            "    )\n",
            "    (reduce_conv1): BaseConv(\n",
            "      (conv): Conv2d(256, 128, kernel_size=(1, 1), stride=(1, 1), bias=False)\n",
            "      (bn): BatchNorm2d(128, eps=0.001, momentum=0.03, affine=True, track_running_stats=True)\n",
            "      (act): SiLU(inplace=True)\n",
            "    )\n",
            "    (C3_p3): CSPLayer(\n",
            "      (conv1): BaseConv(\n",
            "        (conv): Conv2d(256, 64, kernel_size=(1, 1), stride=(1, 1), bias=False)\n",
            "        (bn): BatchNorm2d(64, eps=0.001, momentum=0.03, affine=True, track_running_stats=True)\n",
            "        (act): SiLU(inplace=True)\n",
            "      )\n",
            "      (conv2): BaseConv(\n",
            "        (conv): Conv2d(256, 64, kernel_size=(1, 1), stride=(1, 1), bias=False)\n",
            "        (bn): BatchNorm2d(64, eps=0.001, momentum=0.03, affine=True, track_running_stats=True)\n",
            "        (act): SiLU(inplace=True)\n",
            "      )\n",
            "      (conv3): BaseConv(\n",
            "        (conv): Conv2d(128, 128, kernel_size=(1, 1), stride=(1, 1), bias=False)\n",
            "        (bn): BatchNorm2d(128, eps=0.001, momentum=0.03, affine=True, track_running_stats=True)\n",
            "        (act): SiLU(inplace=True)\n",
            "      )\n",
            "      (m): Sequential(\n",
            "        (0): Bottleneck(\n",
            "          (conv1): BaseConv(\n",
            "            (conv): Conv2d(64, 64, kernel_size=(1, 1), stride=(1, 1), bias=False)\n",
            "            (bn): BatchNorm2d(64, eps=0.001, momentum=0.03, affine=True, track_running_stats=True)\n",
            "            (act): SiLU(inplace=True)\n",
            "          )\n",
            "          (conv2): BaseConv(\n",
            "            (conv): Conv2d(64, 64, kernel_size=(3, 3), stride=(1, 1), padding=(1, 1), bias=False)\n",
            "            (bn): BatchNorm2d(64, eps=0.001, momentum=0.03, affine=True, track_running_stats=True)\n",
            "            (act): SiLU(inplace=True)\n",
            "          )\n",
            "        )\n",
            "      )\n",
            "    )\n",
            "    (bu_conv2): BaseConv(\n",
            "      (conv): Conv2d(128, 128, kernel_size=(3, 3), stride=(2, 2), padding=(1, 1), bias=False)\n",
            "      (bn): BatchNorm2d(128, eps=0.001, momentum=0.03, affine=True, track_running_stats=True)\n",
            "      (act): SiLU(inplace=True)\n",
            "    )\n",
            "    (C3_n3): CSPLayer(\n",
            "      (conv1): BaseConv(\n",
            "        (conv): Conv2d(256, 128, kernel_size=(1, 1), stride=(1, 1), bias=False)\n",
            "        (bn): BatchNorm2d(128, eps=0.001, momentum=0.03, affine=True, track_running_stats=True)\n",
            "        (act): SiLU(inplace=True)\n",
            "      )\n",
            "      (conv2): BaseConv(\n",
            "        (conv): Conv2d(256, 128, kernel_size=(1, 1), stride=(1, 1), bias=False)\n",
            "        (bn): BatchNorm2d(128, eps=0.001, momentum=0.03, affine=True, track_running_stats=True)\n",
            "        (act): SiLU(inplace=True)\n",
            "      )\n",
            "      (conv3): BaseConv(\n",
            "        (conv): Conv2d(256, 256, kernel_size=(1, 1), stride=(1, 1), bias=False)\n",
            "        (bn): BatchNorm2d(256, eps=0.001, momentum=0.03, affine=True, track_running_stats=True)\n",
            "        (act): SiLU(inplace=True)\n",
            "      )\n",
            "      (m): Sequential(\n",
            "        (0): Bottleneck(\n",
            "          (conv1): BaseConv(\n",
            "            (conv): Conv2d(128, 128, kernel_size=(1, 1), stride=(1, 1), bias=False)\n",
            "            (bn): BatchNorm2d(128, eps=0.001, momentum=0.03, affine=True, track_running_stats=True)\n",
            "            (act): SiLU(inplace=True)\n",
            "          )\n",
            "          (conv2): BaseConv(\n",
            "            (conv): Conv2d(128, 128, kernel_size=(3, 3), stride=(1, 1), padding=(1, 1), bias=False)\n",
            "            (bn): BatchNorm2d(128, eps=0.001, momentum=0.03, affine=True, track_running_stats=True)\n",
            "            (act): SiLU(inplace=True)\n",
            "          )\n",
            "        )\n",
            "      )\n",
            "    )\n",
            "    (bu_conv1): BaseConv(\n",
            "      (conv): Conv2d(256, 256, kernel_size=(3, 3), stride=(2, 2), padding=(1, 1), bias=False)\n",
            "      (bn): BatchNorm2d(256, eps=0.001, momentum=0.03, affine=True, track_running_stats=True)\n",
            "      (act): SiLU(inplace=True)\n",
            "    )\n",
            "    (C3_n4): CSPLayer(\n",
            "      (conv1): BaseConv(\n",
            "        (conv): Conv2d(512, 256, kernel_size=(1, 1), stride=(1, 1), bias=False)\n",
            "        (bn): BatchNorm2d(256, eps=0.001, momentum=0.03, affine=True, track_running_stats=True)\n",
            "        (act): SiLU(inplace=True)\n",
            "      )\n",
            "      (conv2): BaseConv(\n",
            "        (conv): Conv2d(512, 256, kernel_size=(1, 1), stride=(1, 1), bias=False)\n",
            "        (bn): BatchNorm2d(256, eps=0.001, momentum=0.03, affine=True, track_running_stats=True)\n",
            "        (act): SiLU(inplace=True)\n",
            "      )\n",
            "      (conv3): BaseConv(\n",
            "        (conv): Conv2d(512, 512, kernel_size=(1, 1), stride=(1, 1), bias=False)\n",
            "        (bn): BatchNorm2d(512, eps=0.001, momentum=0.03, affine=True, track_running_stats=True)\n",
            "        (act): SiLU(inplace=True)\n",
            "      )\n",
            "      (m): Sequential(\n",
            "        (0): Bottleneck(\n",
            "          (conv1): BaseConv(\n",
            "            (conv): Conv2d(256, 256, kernel_size=(1, 1), stride=(1, 1), bias=False)\n",
            "            (bn): BatchNorm2d(256, eps=0.001, momentum=0.03, affine=True, track_running_stats=True)\n",
            "            (act): SiLU(inplace=True)\n",
            "          )\n",
            "          (conv2): BaseConv(\n",
            "            (conv): Conv2d(256, 256, kernel_size=(3, 3), stride=(1, 1), padding=(1, 1), bias=False)\n",
            "            (bn): BatchNorm2d(256, eps=0.001, momentum=0.03, affine=True, track_running_stats=True)\n",
            "            (act): SiLU(inplace=True)\n",
            "          )\n",
            "        )\n",
            "      )\n",
            "    )\n",
            "  )\n",
            "  (head): YOLOXHead(\n",
            "    (cls_convs): ModuleList(\n",
            "      (0): Sequential(\n",
            "        (0): BaseConv(\n",
            "          (conv): Conv2d(128, 128, kernel_size=(3, 3), stride=(1, 1), padding=(1, 1), bias=False)\n",
            "          (bn): BatchNorm2d(128, eps=0.001, momentum=0.03, affine=True, track_running_stats=True)\n",
            "          (act): SiLU(inplace=True)\n",
            "        )\n",
            "        (1): BaseConv(\n",
            "          (conv): Conv2d(128, 128, kernel_size=(3, 3), stride=(1, 1), padding=(1, 1), bias=False)\n",
            "          (bn): BatchNorm2d(128, eps=0.001, momentum=0.03, affine=True, track_running_stats=True)\n",
            "          (act): SiLU(inplace=True)\n",
            "        )\n",
            "      )\n",
            "      (1): Sequential(\n",
            "        (0): BaseConv(\n",
            "          (conv): Conv2d(128, 128, kernel_size=(3, 3), stride=(1, 1), padding=(1, 1), bias=False)\n",
            "          (bn): BatchNorm2d(128, eps=0.001, momentum=0.03, affine=True, track_running_stats=True)\n",
            "          (act): SiLU(inplace=True)\n",
            "        )\n",
            "        (1): BaseConv(\n",
            "          (conv): Conv2d(128, 128, kernel_size=(3, 3), stride=(1, 1), padding=(1, 1), bias=False)\n",
            "          (bn): BatchNorm2d(128, eps=0.001, momentum=0.03, affine=True, track_running_stats=True)\n",
            "          (act): SiLU(inplace=True)\n",
            "        )\n",
            "      )\n",
            "      (2): Sequential(\n",
            "        (0): BaseConv(\n",
            "          (conv): Conv2d(128, 128, kernel_size=(3, 3), stride=(1, 1), padding=(1, 1), bias=False)\n",
            "          (bn): BatchNorm2d(128, eps=0.001, momentum=0.03, affine=True, track_running_stats=True)\n",
            "          (act): SiLU(inplace=True)\n",
            "        )\n",
            "        (1): BaseConv(\n",
            "          (conv): Conv2d(128, 128, kernel_size=(3, 3), stride=(1, 1), padding=(1, 1), bias=False)\n",
            "          (bn): BatchNorm2d(128, eps=0.001, momentum=0.03, affine=True, track_running_stats=True)\n",
            "          (act): SiLU(inplace=True)\n",
            "        )\n",
            "      )\n",
            "    )\n",
            "    (reg_convs): ModuleList(\n",
            "      (0): Sequential(\n",
            "        (0): BaseConv(\n",
            "          (conv): Conv2d(128, 128, kernel_size=(3, 3), stride=(1, 1), padding=(1, 1), bias=False)\n",
            "          (bn): BatchNorm2d(128, eps=0.001, momentum=0.03, affine=True, track_running_stats=True)\n",
            "          (act): SiLU(inplace=True)\n",
            "        )\n",
            "        (1): BaseConv(\n",
            "          (conv): Conv2d(128, 128, kernel_size=(3, 3), stride=(1, 1), padding=(1, 1), bias=False)\n",
            "          (bn): BatchNorm2d(128, eps=0.001, momentum=0.03, affine=True, track_running_stats=True)\n",
            "          (act): SiLU(inplace=True)\n",
            "        )\n",
            "      )\n",
            "      (1): Sequential(\n",
            "        (0): BaseConv(\n",
            "          (conv): Conv2d(128, 128, kernel_size=(3, 3), stride=(1, 1), padding=(1, 1), bias=False)\n",
            "          (bn): BatchNorm2d(128, eps=0.001, momentum=0.03, affine=True, track_running_stats=True)\n",
            "          (act): SiLU(inplace=True)\n",
            "        )\n",
            "        (1): BaseConv(\n",
            "          (conv): Conv2d(128, 128, kernel_size=(3, 3), stride=(1, 1), padding=(1, 1), bias=False)\n",
            "          (bn): BatchNorm2d(128, eps=0.001, momentum=0.03, affine=True, track_running_stats=True)\n",
            "          (act): SiLU(inplace=True)\n",
            "        )\n",
            "      )\n",
            "      (2): Sequential(\n",
            "        (0): BaseConv(\n",
            "          (conv): Conv2d(128, 128, kernel_size=(3, 3), stride=(1, 1), padding=(1, 1), bias=False)\n",
            "          (bn): BatchNorm2d(128, eps=0.001, momentum=0.03, affine=True, track_running_stats=True)\n",
            "          (act): SiLU(inplace=True)\n",
            "        )\n",
            "        (1): BaseConv(\n",
            "          (conv): Conv2d(128, 128, kernel_size=(3, 3), stride=(1, 1), padding=(1, 1), bias=False)\n",
            "          (bn): BatchNorm2d(128, eps=0.001, momentum=0.03, affine=True, track_running_stats=True)\n",
            "          (act): SiLU(inplace=True)\n",
            "        )\n",
            "      )\n",
            "    )\n",
            "    (cls_preds): ModuleList(\n",
            "      (0): Conv2d(128, 3, kernel_size=(1, 1), stride=(1, 1))\n",
            "      (1): Conv2d(128, 3, kernel_size=(1, 1), stride=(1, 1))\n",
            "      (2): Conv2d(128, 3, kernel_size=(1, 1), stride=(1, 1))\n",
            "    )\n",
            "    (reg_preds): ModuleList(\n",
            "      (0): Conv2d(128, 4, kernel_size=(1, 1), stride=(1, 1))\n",
            "      (1): Conv2d(128, 4, kernel_size=(1, 1), stride=(1, 1))\n",
            "      (2): Conv2d(128, 4, kernel_size=(1, 1), stride=(1, 1))\n",
            "    )\n",
            "    (obj_preds): ModuleList(\n",
            "      (0): Conv2d(128, 1, kernel_size=(1, 1), stride=(1, 1))\n",
            "      (1): Conv2d(128, 1, kernel_size=(1, 1), stride=(1, 1))\n",
            "      (2): Conv2d(128, 1, kernel_size=(1, 1), stride=(1, 1))\n",
            "    )\n",
            "    (stems): ModuleList(\n",
            "      (0): BaseConv(\n",
            "        (conv): Conv2d(128, 128, kernel_size=(1, 1), stride=(1, 1), bias=False)\n",
            "        (bn): BatchNorm2d(128, eps=0.001, momentum=0.03, affine=True, track_running_stats=True)\n",
            "        (act): SiLU(inplace=True)\n",
            "      )\n",
            "      (1): BaseConv(\n",
            "        (conv): Conv2d(256, 128, kernel_size=(1, 1), stride=(1, 1), bias=False)\n",
            "        (bn): BatchNorm2d(128, eps=0.001, momentum=0.03, affine=True, track_running_stats=True)\n",
            "        (act): SiLU(inplace=True)\n",
            "      )\n",
            "      (2): BaseConv(\n",
            "        (conv): Conv2d(512, 128, kernel_size=(1, 1), stride=(1, 1), bias=False)\n",
            "        (bn): BatchNorm2d(128, eps=0.001, momentum=0.03, affine=True, track_running_stats=True)\n",
            "        (act): SiLU(inplace=True)\n",
            "      )\n",
            "    )\n",
            "    (l1_loss): L1Loss()\n",
            "    (bcewithlog_loss): BCEWithLogitsLoss()\n",
            "    (iou_loss): IOUloss()\n",
            "  )\n",
            ")\u001b[0m\n",
            "\u001b[32m2022-03-09 16:52:40\u001b[0m | \u001b[1mINFO    \u001b[0m | \u001b[36myolox.core.trainer\u001b[0m:\u001b[36m193\u001b[0m - \u001b[1m---> start train epoch1\u001b[0m\n",
…
